fall_detection_model.onnx (onnx, 125652 bytes, 3 tensors)

const_fold_opt__74 f4 [64, 32]
000000 7a 22 ad be bb 12 ac 3e 74 2d 1c 3e 1b dc f7 bd
       -0.33815366 0.3360804 0.15251714 -0.12102529
000010 40 bc 8a bd 66 52 3a bd fe 36 fc be 1d 6c 47 3e
       -0.06774187 -0.045488738 -0.49260706 0.19474836
000020 1a 6f 94 3e 22 fa 5d be 84 33 d7 bd 92 56 73 3e
       0.28991014 -0.2167745 -0.10507873 0.23763493
000030 e5 31 d6 3d 8d 3d b8 3d 68 88 6f 3e df 4b bc be
       0.104587354 0.08996115 0.23391879 -0.36776635
000040 d5 f1 2f 3c 61 d3 c1 3e c9 fa c3 3e 3d 90 a9 be
       0.01073881 0.37856582 0.3827727 -0.33117858
000050 38 7f 17 be 20 13 a3 3e 2c 2c fd bb 2e 86 fa 3d
       -0.14794624 0.3185053 -0.007726213 0.12232624
000060 68 9a c5 be c5 cd 56 be 3f 74 d3 3e 62 fc e7 3c
       -0.38594365 -0.20976932 0.41299626 0.028318588
000070 82 07 b3 be d0 6b ac 3e 6d 0c d3 3d 33 5d d1 3e
       -0.34966666 0.33676004 0.103051044 0.40891418
000080 c1 5e 8a 3c b4 07 22 bd e4 93 e5 3d c2 a0 d7 3d
       0.016890885 -0.039558128 0.112098485 0.10528709
000090 c7 6e a9 bb 5a 6d 35 be c6 5f 14 3c 6a 27 be 3d
       -0.0051706764 -0.17717496 0.009056037 0.092848614
0000a0 6f 22 28 3e 3a 6b 11 3e 61 15 fc bd ad e3 2f 3e
       0.16419385 0.1420106 -0.12308765 0.17176695
0000b0 db de 1f bd 80 d6 65 be a7 d5 eb 3d 8b 3d 48 3e
       -0.03903089 -0.22445107 0.1151536 0.19554727
0000c0 17 d1 84 3e 34 13 c9 bd 8b cf 78 3e 76 a9 40 be
       0.25940773 -0.09818116 0.24297921 -0.18814644
0000d0 49 ff f5 bd 55 b4 15 bd 44 00 f4 bc b2 7a 1b 3e
       -0.120115824 -0.03654893 -0.029785283 0.15183523
0000e0 48 68 43 bd 2d 2f 26 3e 66 37 ce 3d a7 06 49 3e
       -0.047706872 0.16228934 0.1006916 0.19631444
0000f0 ad a0 51 be ac 44 d5 3d 30 05 82 3d 55 bf 09 be
       -0.20471449 0.10413489 0.06348646 -0.13451894
000100 e9 69 95 3d 1a f0 2a bd 50 bf cb bd af ac 03 3e
       0.072955914 -0.041732885 -0.09948599 0.12858842
000110 c9 12 f4 3c ab de 04 3e 1f 0a 84 3e a0 16 0a be
       0.029794114 0.12975566 0.25788972 -0.13485193
000120 ac 0c c9 bd fd 12 17 3e 0a e0 39 bd 0e 87 24 3e
       -0.0981687 0.14753337 -0.045379676 0.16067144
000130 15 4d 5b 3e a7 a9 35 be b1 dc 55 bd 92 e8 ca 3c
       0.21416123 -0.17740498 -0.05221242 0.024769101
000140 39 1f 3c be 18 79 f1 bd 10 18 47 bd fa 39 0b 3e
       -0.18371285 -0.11790675 -0.048606932 0.13596335
000150 a9 b7 3c be c8 1e 3d 3e d4 62 64 be 39 0d 15 be
       -0.18429436 0.18468773 -0.22303325 -0.14555825
000160 49 21 3b 3e 56 7e 8e 3d 27 9d 20 3e 7a 25 1d bd
       0.18274416 0.069576904 0.15684949 -0.03836582
000170 d0 e4 c7 3c 2c 0a 9a 3e c0 60 50 3e c2 86 53 3e
       0.024401098 0.30085886 0.20349407 0.20656875
000180 39 e4 0e 3e 8d 7e 7c be 88 3e 44 3d a8 af 56 be
       0.13954248 -0.2465765 0.047911197 -0.20965445
000190 af 49 8b 3e bb f8 2f 3e cc 32 06 be c5 b5 7d be
       0.27204654 0.17184727 -0.13105315 -0.24776371
0001a0 79 bb 2c 3d 98 13 5c bd 6d 4a d1 bd a1 30 1a 3e
       0.042170975 -0.053729624 -0.10219274 0.15057613
0001b0 00 0c 3a be 38 ad 13 be 0b fc 0c be 58 0f fc bd
       -0.1816864 -0.14421546 -0.13768022 -0.12307614
0001c0 f9 07 3c be 3b 33 00 3e cd d5 82 be 99 09 52 3d
       -0.18362416 0.12519543 -0.25553742 0.051278684
0001d0 37 a4 65 3d 70 dd 45 be 18 15 88 3d 1b cc 18 be
       0.05606481 -0.19322753 0.06644648 -0.1492161
0001e0 7e cb de 3d bb e4 a8 3d 00 e7 e6 bb f3 9f 8c bd
       0.10878657 0.08246752 -0.0070465803 -0.068664454
0001f0 80 53 6b 3a 73 13 a7 bd a6 9a a4 bd 3e 9f 16 bd
       0.0008976981 -0.081580065 -0.08037309 -0.03677296
000200 c3 6f 1a 3e 0a 1f 1f be f8 55 0a 3e 4f da 01 3e
       0.15081696 -0.15539184 0.13509357 0.12680934
000210 24 5f 17 bd b7 92 00 3e 02 89 1d 3c db f3 8e bd
       -0.036955968 0.12555967 0.009615185 -0.069801055
000220 8f 32 21 be fe 69 5d 3e ec a1 af bb 09 11 04 be
       -0.15741943 0.21622464 -0.0053598788 -0.12897123
000230 37 fe 55 3e 52 7b 2a 3e 84 e0 c7 3d 65 7f ab 3d
       0.20897757 0.16648605 0.0975962 0.08373908
000240 99 3f 14 3e 5c 2c f2 3d 6c cd b1 3d 89 a4 7e bd
       0.14477386 0.11824867 0.08681759 -0.06216863
000250 66 a8 06 be 65 ec 8c 3d fb e2 2c 3e ff c7 61 bd
       -0.13150176 0.06881026 0.16883461 -0.05512237
000260 43 b9 53 3d 19 96 1f 3e a8 56 35 3d 03 77 01 3d
       0.05169035 0.15584601 0.044272095 0.03160764
000270 f3 81 34 3e bc d0 73 3e fc ce 8f 3e 9d 1f c0 bd
       0.17627697 0.23810095 0.28087604 -0.0938103
000280 1a 77 53 3c 58 7a ef 3c 20 1e 89 bb de fa 99 3c
       0.012906814 0.029233143 -0.0041844994 0.01879638
000290 90 e8 5a be f3 e5 ae 3e 77 90 6a 3e ba 2a 48 bd
       -0.21377778 0.34159812 0.22906671 -0.048868872
0002a0 01 29 13 3e 2d fd 53 bc ca 3f 8c 3e 32 02 f4 bd
       0.1437111 -0.01293878 0.27392417 -0.11914481
0002b0 c4 b2 0c 3b 22 9d b6 bd 40 b3 15 3d 37 4f bd 3e
       0.0021468857 -0.089166895 0.0365479 0.369745
0002c0 be 6a 9b 3e b6 c6 43 be d3 99 03 3e e1 a9 91 3e
       0.30354875 -0.19118771 0.12851648 0.2844992
0002d0 4c 1c 8c 3e 94 79 b4 bd 3b 39 6f be 23 36 36 3d
       0.2736534 -0.08812252 -0.23361675 0.044485223
0002e0 de c3 88 3e 30 3e 1d 3e 32 7a bd bd 1c e1 92 bd
       0.26711935 0.15355754 -0.092518225 -0.071718425
0002f0 64 a0 8a 3e 6e 3a 6d bd fc 88 cf bd 85 90 24 3d
       0.27075493 -0.05791705 -0.101335496 0.040176887
000300 9b 59 41 be cb ea b9 3e 36 19 08 be 41 4b 68 be
       -0.18881838 0.36311945 -0.13290867 -0.22684957
000310 52 52 11 3e 6e 36 fe bd 51 57 1d 3d 12 09 9a 3e
       0.14191559 -0.124127254 0.03841335 0.30085045
000320 71 47 68 3e e0 66 42 be 5e 72 01 bd 04 cf 33 be
       0.22683503 -0.18984556 -0.03160321 -0.17559439
000330 cd d7 39 3d c6 d8 81 be 80 cf 46 3e ad 06 c0 be
       0.04537182 -0.25360698 0.19415092 -0.37505093
000340 16 30 e5 3b 82 5f 08 be aa b7 25 be 53 b8 a5 be
       0.0069942577 -0.13317683 -0.16183344 -0.3236719
000350 a2 b6 94 be c9 10 aa 3e df b3 7d 3c 80 ee 73 be
       -0.29045588 0.3321593 0.015484779 -0.2382145
000360 2b 8b 2d 3c da 11 c0 be 9b 0f ba bc 82 d9 99 3e
       0.010592262 -0.3751362 -0.02271252 0.30048758
000370 9d 83 36 be 03 63 c8 3e 72 49 c0 3d d0 ff a6 bc
       -0.17823644 0.3913804 0.093890086 -0.020385653
000380 6c f0 ae bd 03 7c 2e 3e 69 66 3c 3d aa c5 2a 3e
       -0.085419506 0.17039494 0.045996103 0.16676965
000390 98 f1 8f be a5 b4 16 be be 7a da bd 85 0d b5 3d
       -0.2811401 -0.14717348 -0.106679425 0.08840469
0003a0 39 6e f7 3d e7 69 15 3e 6f 82 9a 3d f1 da ab bd
       0.1208157 0.1459118 0.075444095 -0.08391369
0003b0 d1 6a 0e 3e 4a a8 3a be 3b ab 9e bc 28 43 5a be
       0.13907935 -0.1822826 -0.019368758 -0.2131468
0003c0 80 7e 03 3e 93 f9 ba 3d 44 0a 3d be ad 8c 89 be
       0.12841225 0.09129634 -0.18460947 -0.2686514
0003d0 9c 80 32 3e 28 f2 4c be 8e c8 ba bd 08 48 99 bc
       0.17431873 -0.2001425 -0.09120284 -0.018711105
0003e0 d5 25 6e bd ec 53 c3 bd be cd ae 3d 6f 79 72 3d
       -0.05814155 -0.09537491 0.08535336 0.05919784
0003f0 0e c7 ac bd 35 fa 92 bb eb ec e8 3d 35 90 25 3d
       -0.08436404 -0.0044853934 0.113733135 0.04042073

const_fold_opt__72 f4 [32, 1]
000000 bf 9d 32 be 0c 3e b9 3e f7 5f cb bd bf be c6 be
       -0.17442988 0.3618015 -0.09930413 -0.38817403
000010 e2 08 90 bd e0 5b 2c be a7 cf 80 be 82 f3 48 3e
       -0.07032944 -0.16831923 -0.25158426 0.19624141
000020 3c 3b 75 3e a8 fb d6 bd 6a 70 81 bd 16 50 5f 3d
       0.23948377 -0.10497218 -0.063202694 0.054519735
000030 ac 7e b6 3e e5 54 11 be a2 df b1 3e 3a f1 07 bf
       0.35643518 -0.14192541 0.3474093 -0.5310246
000040 30 d4 d4 bd 22 f0 dd 3e 4e ef aa 3d c0 f3 cb be
       -0.10392034 0.4334727 0.08346425 -0.39834404
000050 f4 41 68 be 77 2b 36 3e e7 8c 81 3c 1b 58 6d 3e
       -0.22681409 0.17790018 0.015814258 0.23178141
000060 22 04 c1 be 17 3b 11 be 8e 5d 5a 3e 64 2d 04 3f
       -0.37698466 -0.14182697 0.21324751 0.5163176
000070 ac fd 57 be 06 f5 c4 3e f1 4a 16 3f 22 88 c3 3e
       -0.21092862 0.38468188 0.587081 0.381898

arith.constant5 f4 [32]
000000 ce 56 c3 bc 25 5c 0b 3d d8 27 37 3c 16 a9 80 3d
       -0.023845103 0.034023423 0.011178933 0.062822506
000010 64 e2 20 bd 7c 80 4f bb e5 0f c9 3d d5 6a ba 3d
       -0.039278403 -0.0031662276 0.09817485 0.09102408
000020 e7 fd 2f 3e 75 85 9e 3c 7c 00 2f bd a8 c0 98 3c
       0.171867 0.019350747 -0.04272507 0.018646553
000030 5f 0a cf 3d ae bb 0e bd 62 f9 f9 3d 53 c1 cb 3d
       0.101094 -0.034846954 0.12205769 0.09948983
000040 7a 99 33 bd ff 4c be 3d 25 40 2b 3d 30 7c 8a 3d
       -0.04384754 0.092920296 0.04180922 0.06761968
000050 9f a8 91 3c 74 c4 4a 3d a7 14 d0 bb 3d 22 81 3c
       0.0177806 0.04950376 -0.006350118 0.015763396
000060 62 d0 01 3d 55 ff 7b 3d fc bf 11 3e 04 e7 e0 3d
       0.03169287 0.0615228 0.14233392 0.10981563
000070 a0 9d 1b 3d 9b 73 a7 3d ce 4c 02 3e 1d bc 17 3e
       0.03799212 0.08176347 0.12724611 0.14817853
