fall_detection_model.tflite (tflite, 127176 bytes, 6 tensors)

arith.constant3 f4 [1, 32]
00000000: bf9d 32be 0c3e b93e f75f cbbd bfbe c6be
00000010: e208 90bd e05b 2cbe a7cf 80be 82f3 483e
00000020: 3c3b 753e a8fb d6bd 6a70 81bd 1650 5f3d
00000030: ac7e b63e e554 11be a2df b13e 3af1 07bf
00000040: 30d4 d4bd 22f0 dd3e 4eef aa3d c0f3 cbbe
00000050: f441 68be 772b 363e e78c 813c 1b58 6d3e
00000060: 2204 c1be 173b 11be 8e5d 5a3e 642d 043f
00000070: acfd 57be 06f5 c43e f14a 163f 2288 c33e
-0.17442988 0.3618015 -0.09930413 -0.38817403 -0.07032944 -0.16831923 -0.25158426 0.19624141
0.23948377 -0.10497218 -0.063202694 0.054519735 0.35643518 -0.14192541 0.3474093 -0.5310246
-0.10392034 0.4334727 0.08346425 -0.39834404 -0.22681409 0.17790018 0.015814258 0.23178141
-0.37698466 -0.14182697 0.21324751 0.5163176 -0.21092862 0.38468188 0.587081 0.381898

arith.constant4 f4 [32, 64]
00000000: 7a22 adbe c15e 8a3c e969 953d 39e4 0e3e
00000010: c36f 1a3e 1a77 533c 9b59 41be 6cf0 aebd
00000020: 3bce df3d 195c 0d3d 9986 1abd 22e0 703e
00000030: dc56 1c3c a1f3 1dbe 4292 1bbe c1d1 073e
00000040: df5e 0dbd 100b 4f3e 1e33 e33d 68fd a7bd
00000050: 6c6c 543d 7fd7 80bd 9863 893e f359 0c3e
00000060: d93a 123d ec56 0e3e 5010 2f3e 226d c4bd
00000070: c973 bb3c b8f7 e2bd 158d 1b3e a946 9dbc
00000080: 98ee 9c3b 4607 c93d 85f4 1d3e b5ed 91be
00000090: b358 9cbd 21c6 ff3d 7e79 acbd e804 09be
000000a0: 657d 443c 2be3 77be fb42 663e 0fcd e1bc
000000b0: 2974 c5bc c235 7dbc 4f22 c03c 4864 6abd
000000c0: 9f20 b4be 1164 cc3d 5b7c 0b3e f3a2 b2bc
000000d0: ea53 b03d e67a 823e 1b66 5ebe 839f 833d
000000e0: 121e 7e3d 69b5 9e3d 374a 9e3d 8f6c aa3d
000000f0: 7ee3 05bd 76a5 34be e8d8 863d cf7f bc3d
00000100: bb12 ac3e b407 22bd 1af0 2abd 8d7e 7cbe
00000110: 0a1f 1fbe 587a ef3c cbea b93e 037c 2e3e
00000120: 5236 a53d b69a 06be 3f33 a2bd a152 96be
00000130: 4176 4d3e 6406 babd 09f2 80bd 58bb 1c3e
00000140: c868 913e bafd b7bd 2475 1d3e 1916 213e
00000150: e930 5dbd 52a9 46be de08 b5bb ea06 9d3d
00000160: 2775 703e 9630 973d a97d 85be adc9 203e
00000170: a939 cc3d 1e43 93bc 9d13 47be d021 abbd
00000180: 19d3 75be 8aa6 8f3c b47c febd 86b9 1a3e
00000190: 3080 d83c 8f44 1e3d 611d 1f3b a0f0 8d3e
000001a0: 902b 383e 8b34 08bd fc08 d03d fc43 823d
000001b0: 469b 0c3e 9b8d 37be 25c1 93be ac02 ad3d
000001c0: e080 423e 39df 1dbe e796 00be eeb1 013d
000001d0: c812 ab3e cbea f3bc 2044 203e 4369 883d
000001e0: aa73 1abe 447c 1ebe 8a7e 543d 6344 023e
000001f0: 8eae 243e 6adb 323d 37fc 1cbd d8b9 e8bd
00000200: 742d 1c3e e493 e53d 50bf cbbd 883e 443d
00000210: f855 0a3e 201e 89bb 3619 08be 6966 3c3d
00000220: e1bd 6b3e 4c87 3bbe b932 a1bd 5044 103e
00000230: b28e 003e 7a58 2f3e 1d27 903d f548 0dbe
00000240: 69f4 1dbd 46c0 c1bb d26c 9a3e c303 b63e
00000250: ccee 703e 272b 1bbe 5e2a ca3e a813 e5bd
00000260: 326a 6b3d dccc 593d 968b 993d dd37 8ebe
00000270: 3864 1ebe 3bf4 373d ceab 33be 126f a93c
00000280: 00d9 193e eaf8 acbd e646 723d 6ccc a7be
00000290: 29ab 95be bdca 5b3e 203d 0e3d f6c9 83be
000002a0: 55a9 093d de0d d7bd f819 7ebd 13f8 87bd
000002b0: d7c5 68be 926b 813e 1aa6 26bd 3a36 5d3c
000002c0: c266 8dbe d6ff babd 9a72 703e c16b b23d
000002d0: 8b81 603d 9eb9 2b3e 75ba 463e 1acc eebd
000002e0: bc89 873e 6770 8c3e 14cb e4bd 47ad 49be
000002f0: 8233 1fbd 905c c23d 3a23 f83d 3cf8 1abd
00000300: 1bdc f7bd c2a0 d73d afac 033e a8af 56be
00000310: 4fda 013e defa 993c 414b 68be aac5 2a3e
00000320: 0163 843e 2935 10be 0228 563e ed5a 433e
00000330: cf79 00be 530a edbd c463 bebd 0327 073e
00000340: 9292 07bb fa40 3e3e 246c 253c e6b0 e33d
00000350: 6f1b 8a3d 70b1 003c f9e7 1f3e 9aad d33d
00000360: 6242 fcbd 7da3 aa3e 277a 29bd e180 a0be
00000370: 7fe0 99bd 60fe 29bd bbdc 1dbe 2830 29bd
00000380: 8794 1abe 6924 5f3c 8c19 3f3e 0c6e d5bd
00000390: 7b9d bf3d 9295 493d c394 51be b46c 75bd
000003a0: 8ed3 323e 027e 113c 1389 1d3d f155 813e
000003b0: 8c05 303d 4480 c33d 9a47 2f3e 14a6 1f3e
000003c0: e966 73be 5f98 a83c 97e9 933d 0b74 a1bd
000003d0: c99c 4cbe 4af6 423e 0c51 3ebd 05bb 26be
000003e0: 2883 313d 688c b6bd ab8b 033e 06aa 01be
000003f0: 8be0 9dbd 55f1 953e 99a5 193e edd3 45be
-0.33815366 0.016890885 0.072955914 0.13954248 0.15081696 0.012906814 -0.18881838 -0.085419506
0.10928007 0.03451166 -0.03772602 0.23523 0.009542193 -0.15424968 -0.15192512 0.13263609
-0.034514304 0.20219064 0.11093734 -0.0820263 0.05186121 -0.062911026 0.26833797 0.13706188
0.035700653 0.13900346 0.17096066 -0.09591128 0.02288236 -0.11082405 0.15190537 -0.019198732
0.004789185 0.098158404 0.15425308 -0.2850167 -0.076341055 0.12488962 -0.0842161 -0.13380778
0.011992787 -0.24207751 0.22486489 -0.0275636 -0.024103241 -0.015454711 0.02345386 -0.057224542
-0.35181138 0.09980024 0.13621657 -0.021806216 0.08609755 0.2548439 -0.21718638 0.06426909
0.062040396 0.07749445 0.07728999 0.08321487 -0.032687657 -0.17641243 0.0658434 0.09204065
0.3360804 -0.039558128 -0.041732885 -0.2465765 -0.15539184 0.029233143 0.36311945 0.17039494
0.080670014 -0.13144955 -0.07919931 -0.29359916 0.20064642 -0.0908325 -0.062961645 0.15305841
0.28400254 -0.089839414 0.15376717 0.15731086 -0.054001722 -0.19400528 -0.0055247387 0.076673344
0.2348219 0.07382314 -0.26072434 0.15701933 0.09971935 -0.01797634 -0.19441076 -0.083560586
-0.24006309 0.017535467 -0.12426129 0.15109834 0.026428312 0.0386396 0.0024278986 0.27722645
0.17985368 -0.033253234 0.10157964 0.06360623 0.13731107 -0.17925112 -0.28858295 0.08447775
0.18994474 -0.15417184 -0.12557565 0.031663828 0.33412766 -0.029775044 0.15650988 0.06660702
-0.15083185 -0.15477091 0.05187849 0.127214 0.16082212 0.04366628 -0.03832647 -0.11363572
0.15251714 0.112098485 -0.09948599 0.047911197 0.13509357 -0.0041844994 -0.13290867 0.045996103
0.23021652 -0.1831333 -0.07871003 0.14088559 0.12554434 0.17123595 0.0703871 -0.13797362
-0.038563166 -0.0059128134 0.30161148 0.35549745 0.23528594 -0.1515318 0.3948545 -0.1118539
0.057474323 0.053173885 0.07497327 -0.27776995 -0.15467918 0.04491065 -0.17546007 0.020682845
0.15024185 -0.08445914 0.059149645 -0.3277315 -0.29232147 0.21464057 0.034726262 -0.2574002
0.033608753 -0.10500692 -0.062036484 -0.06639113 -0.2273172 0.25277382 -0.04068575 0.013501698
-0.2761746 -0.09130828 0.23481217 0.08711959 0.05481104 0.16770026 0.19407065 -0.11660023
0.2647227 0.27429506 -0.111715466 -0.19695006 -0.03886748 0.09490311 0.12116094 -0.03783439
-0.12102529 0.10528709 0.12858842 -0.20965445 0.12680934 0.01879638 -0.22684957 0.16676965
0.25856784 -0.14082779 0.209137 0.19077654 -0.12546466 -0.11574235 -0.092963725 0.13198476
-0.0020686728 0.18579474 0.0100965835 0.11117725 0.06743514 0.007854804 0.15615834 0.10335846
-0.12317349 0.33327857 -0.04137626 -0.31348327 -0.07513522 -0.041502357 -0.15416233 -0.04130569
-0.15095721 0.013619521 0.18662089 -0.104213804 0.09356209 0.049214907 -0.20466904 -0.05991812
0.17463514 0.00888014 0.038460802 0.2526088 0.04297404 0.09545949 0.17117158 0.15590698
-0.23769726 0.020580469 0.07222288 -0.078834616 -0.19981684 0.19039264 -0.04646401 -0.1628228
0.04333797 -0.08913499 0.12846248 -0.12662515 -0.07708844 0.29285684 0.15004577 -0.19319125

arith.constant5 f4 [32]
00000000: ce56 c3bc 255c 0b3d d827 373c 16a9 803d
00000010: 64e2 20bd 7c80 4fbb e50f c93d d56a ba3d
00000020: e7fd 2f3e 7585 9e3c 7c00 2fbd a8c0 983c
00000030: 5f0a cf3d aebb 0ebd 62f9 f93d 53c1 cb3d
00000040: 7a99 33bd ff4c be3d 2540 2b3d 307c 8a3d
00000050: 9fa8 913c 74c4 4a3d a714 d0bb 3d22 813c
00000060: 62d0 013d 55ff 7b3d fcbf 113e 04e7 e03d
00000070: a09d 1b3d 9b73 a73d ce4c 023e 1dbc 173e
-0.023845103 0.034023423 0.011178933 0.062822506 -0.039278403 -0.0031662276 0.09817485 0.09102408
0.171867 0.019350747 -0.04272507 0.018646553 0.101094 -0.034846954 0.12205769 0.09948983
-0.04384754 0.092920296 0.04180922 0.06761968 0.0177806 0.04950376 -0.006350118 0.015763396
0.03169287 0.0615228 0.14233392 0.10981563 0.03799212 0.08176347 0.12724611 0.14817853

arith.constant19 f4 [256, 40]
00000000: b486 f53d afa2 a73c 5447 453e f1ee 89bc
00000010: 447f b03d c7fb 993d 422b 163d b67e 8c3c
00000020: bf4f 4fbc c830 a03e 9fd5 dbbc 707b 7b3d
00000030: ae25 ff3c ceb6 fc3d c2ae 4ebd 2c14 5a3d
00000040: a86a fb3d 9695 b0bc 2879 013c 2ce3 383e
00000050: 9500 e1bd 3825 70bd 254e 6dbc 0ff4 04be
00000060: 79bc 7abd 02aa 69be 8d31 2bbd a56c 0abe
00000070: f2d6 b5bd 079b f4bd 9241 d2ba 8648 66bd
00000080: e98b 543d 2434 8fbd 5e43 2dbd 04b1 063c
00000090: 69cb 68bc 1d2c 62be d911 a1bc cc8f f3bd
000000a0: cf57 d7bd fbc6 ed3d 6edb a43d 0148 ee3d
000000b0: 6d8f 1a3e a510 cbbd 7c02 473d fd4f 91bd
000000c0: 62dc cabd 566c d33d 5d62 d5bc d947 a63d
000000d0: c237 9d3d ae2f cbbb 05ff 0bbe b6fd 04be
000000e0: 75fa c4bd 2323 0a3e d165 6fbc b04b 09b9
000000f0: 668a acbd bd01 34bd eaea ad3d 990a 14be
00000100: 64cc 8bbd 875b 8fbd bc09 2d3d b0d5 4cbd
00000110: 9597 9abd 56e0 48bc cc08 a13d 8a38 23be
00000120: dc4c 263d 26d0 e0bd aa3a 313d 1f6f 39bc
00000130: 17ac a4bc cf94 5a3d 7aa4 323d c139 f63d
00000140: a7f2 f2bb b582 0b3e ecb7 ba3c b322 96bc
00000150: d271 ef3c 5cee 12be 8c1d a13d c5e1 053e
00000160: 9391 e1bd 6567 883c 7e6f cabc b106 2e3d
00000170: 24b8 373d 11dd 103d 301a a8bd 748d 483d
00000180: f5c3 ab3d 15d7 073e 5542 033e 9b76 fe3d
00000190: 5f69 dabc 7c72 c8bd 36ff 173e 5ffe 923a
000001a0: 636c 413d 7520 d7bd 17c5 d7bd 9035 8fbc
000001b0: 709a ff3c 77ac b23d 3d3b 2cbd c9a8 d83d
000001c0: b76d 37bd 48ce 9f3d 85cc ba3d 9b00 eabd
000001d0: 07e8 5cbc 7b4c 06be 3070 113c 5a37 d93d
000001e0: 0392 97bd 03fa 2ebd 58bd a93d 116f e6bd
000001f0: 3f9c 7bbc 5d6f 153c fa09 f7bd b6ad 023d
00000200: 764f 35be 3e7c a7ba 83b3 ae3b 0035 863b
00000210: da30 22be e79d 143d c94d 9bbd 231e 5b3c
00000220: 3f3a 22be 723c 0a3d cd38 92bc 5f1e ebbd
00000230: 4d5e 133d 4f76 c1bd 3a1b 36be 61e1 863d
00000240: e018 f23d 1a76 d6bd bbf9 f03d f2af 923d
00000250: 04f5 f03d 4bc5 a83d 5f80 6d3c 2320 cfbc
00000260: 1d6c cc3d 72f8 cd3c ffdb c53d 2a1d ba3c
00000270: 38ed ab3d 6c97 fe3c dd76 f53c 0f02 093e
00000280: e103 cabd d8d1 18bd bcdb 04bd b1b3 dc3d
00000290: 5026 933b 98c3 a03d 084c 00be 7241 99ba
000002a0: f9c8 6cbd d8c4 15bd 0608 623d 9724 c13d
000002b0: d135 363d e14a 93bd ec78 a7bc ee60 34be
000002c0: 1bd9 d33d 6e83 f6bc d6cd f3bc fe17 613d
000002d0: 9b60 063e e04b 87bd d735 0dbe e036 9abd
000002e0: ec0e b33d fc73 a6bc 8c64 5e3d eaff 3dbe
000002f0: db8f 333d 29f6 513d d018 933c 2383 523d
00000300: 0813 b1bd 281d b8bb 91fb 8fbd 2bb5 8abc
00000310: 83fd 893d 0a91 4dbd fe33 863d 97bf d73d
00000320: a547 f93b 161a 0bbd 74d6 78bb 0981 cb3d
00000330: c9e0 1abc 4220 bebd 00be 253b f729 9fbd
00000340: 0dc5 fd3d 95d2 c93d ea3b 843d 8f95 9b3d
00000350: e67e 72bd 135f 623d 3e03 0fbd 0a1f 723d
00000360: dd42 c23d 222b 323d 712d 2d3e 33c5 643d
00000370: 18cd 033d 8827 84bd e0b1 ca3d 0461 433d
00000380: cb67 0abe b4e8 913d dd01 063c dcae 98bd
00000390: f4bd e0bd e4d3 943d 2cc1 bc3c fd64 3bbd
000003a0: cec0 853d 092e 953d a619 083e e405 963c
000003b0: fb97 c5bd eb2d 1a3c c89a 8ebd 39e1 283e
000003c0: bbb6 c03d 8e1f f73d 77a9 4fbd f371 c33c
000003d0: 63e7 e6bd 29e4 2f3d 0ebf 0a3e ef78 36be
000003e0: 4be9 273e 1b96 8e3b e867 ed3d 935c 7f3d
000003f0: b2be 15be 63f4 20be e67e 113d 8cc4 02be
0.11988583 0.020463316 0.19265491 -0.016837569 0.08618024 0.07518726 0.036662348 0.017150264
-0.01265329 0.31287217 -0.02683526 0.061397016 0.031145897 0.12339555 -0.05045963 0.053241894
0.122762024 -0.021555703 0.007902421 0.18055409 -0.10986439 -0.058629245 -0.014483963 -0.12983726
-0.061214898 -0.22818759 -0.041795302 -0.13518007 -0.08878888 -0.119436316 -0.001604127 -0.056221507
0.05189124 -0.06992367 -0.042300574 0.008220915 -0.014208653 -0.2208714 -0.01966183 -0.118926615
-0.10514795 0.11610218 0.080496654 0.116348274 0.15093775 -0.09915284 0.048586354 -0.07095335
-0.09905316 0.10323398 -0.02604788 0.081191726 0.076766506 -0.006200752 -0.13671501 -0.12987408
-0.096180834 0.13489966 -0.014611677 -0.00013093534 -0.08424835 -0.04394697 0.08492072 -0.14457168
-0.06826094 -0.06999879 0.04224561 -0.050008476 -0.07548443 -0.012260517 0.07863006 -0.15939537
0.040600643 -0.10977201 0.043268837 -0.011317997 -0.02010159 0.05336457 0.04361389 0.120227344
-0.0074141803 0.1362408 0.022792779 -0.018327093 0.029229078 -0.1434874 0.07866964 0.13074405
-0.11014094 0.016650865 -0.024711367 0.04248685 0.044853345 0.035367075 -0.0820812 0.048963025
0.08386985 0.13265641 0.12818272 0.12424966 -0.026661573 -0.09787461 0.14843449 0.0011214725
0.047222506 -0.105042376 -0.10535639 -0.017481595 0.031201571 0.08724301 -0.04204868 0.10579068
-0.044782367 0.07803017 0.0912104 -0.11425897 -0.013483054 -0.13115112 0.008876845 0.106062606
-0.074008964 -0.0427189 0.082880676 -0.11251653 -0.015357076 0.009120789 -0.1206245 0.031903945
-0.17706093 -0.0012778116 0.005331458 0.0040956736 -0.15838948 0.0362834 -0.07583196 0.013373884
-0.15842532 0.03374905 -0.01784935 -0.11480402 0.035978604 -0.09446394 -0.17783824 0.06585956
0.11821151 -0.10471745 0.11766382 0.07162465 0.11765483 0.08240756 0.014495938 -0.025283879
0.099815585 0.025142882 0.096611015 0.022718985 0.08394855 0.031078063 0.029963905 0.13379692
-0.09864021 -0.037309498 -0.032436118 0.10776461 0.004490651 0.078498065 -0.12529004 -0.0011692478
-0.05780885 -0.036564678 0.055183433 0.09430807 0.044484917 -0.071920164 -0.020443402 -0.176151
0.10344144 -0.030091967 -0.029761236 0.05495452 0.1312279 -0.06606269 -0.1379007 -0.07529998
0.087430805 -0.020318978 0.054295108 -0.18554655 0.043838363 0.051260147 0.017956167 0.051394593
-0.08646208 -0.00561871 -0.07030404 -0.01693209 0.06737807 -0.05018715 0.065528855 0.1053459
0.0076074176 -0.033960424 -0.003796962 0.09936721 -0.009453007 -0.092834964 0.002529025 -0.07771676
0.123911 0.098546185 0.0645674 0.075968854 -0.05920305 0.05526645 -0.0349152 0.059111632
0.094854094 0.043498166 0.16911866 0.055852126 0.032178015 -0.064528525 0.09897208 0.047699943
-0.13516156 0.07124463 0.008179155 -0.07455227 -0.10973731 0.072669774 0.02304133 -0.045750607
0.06530915 0.07284171 0.13291034 0.018313356 -0.096481286 0.009410362 -0.06963116 0.16492166
0.09409853 0.120665655 -0.050698724 0.023858046 -0.11274602 0.0429422 0.13549444 -0.1781957
0.16397588 0.00435139 0.11592084 0.062344145 -0.14623526 -0.15718226 0.03552141 -0.12770289

arith.constant20 f4 [256, 64]
00000000: 35c7 65bd a069 b0bd b2ac bfbd 4384 4b3e
00000010: 951c dbbc 068b 813c 9c53 113e 9bca 2d3d
00000020: 97c2 993e 3f1f ae3d 48cb a03d 727e 873e
00000030: 3812 d3bd eab7 183e 94d5 873d 3650 3cbd
00000040: 4a5a 51be 2135 3e3d adc5 283e f124 01be
00000050: 5b2a 033d 3bc6 bb3c ba85 c93c 9f43 55be
00000060: f0bd 34bd a100 a73e 902c 4ebe 3b5b aebc
00000070: 14e0 013e 8750 4e3e ac1f 783d c6b5 563e
00000080: 424c 713c b7bf ddbc 918d 313d 4639 a8bd
00000090: 5730 9fbd a39b 393d 596d 67bc b498 1dbd
000000a0: 23e8 fabc e743 0e3d 85ec 013e c011 123e
000000b0: 1db1 25be 74f4 143d 7060 693b 54ff 1fbd
000000c0: c8c5 143e 4c07 8fbd 3939 01be d4a3 08be
000000d0: 3052 193e 648f 943d f111 6b3d 8b30 8cbd
000000e0: 8e57 c03d f861 363c 27b9 853a 736b e9bd
000000f0: 39d3 d8bd 91ab 06be 05fe 27be d4c4 7bbd
00000100: d4f1 bc3c a639 54bd 487f 983c ab72 71bd
00000110: 0cc6 e93d 40b3 2c3d 5aed 3b3d 34ed 08be
00000120: cd0c e73d 7bcf 763d d1b7 4abd 6a4f ef3c
00000130: 2b9d afbd da11 a53c 2571 91bc a925 96bd
00000140: 26ec 2abd 2ce6 4f3d b861 ec3d a949 f4bb
00000150: b8b3 ee3c 691c c8bd 4c61 e5bc 5a31 1bbd
00000160: 0d5a 903d 091d 94bb 0552 c9bd 618f 4dbd
00000170: cea2 d5bc 1412 6d3d 3edb 9fbd 007c 093d
00000180: e752 b33d f8ed 90bd 1a11 613d 4f4b 94bc
00000190: e688 8bbd 7a04 2abd e813 ef3d a4bf 9bbd
000001a0: 5701 a13d 87ca 753d ce52 9f3c e5dd 8fbd
000001b0: 44c4 ffbc 2be4 aa3b 6e76 aabd a7c0 983c
000001c0: 717c 1ebd a490 043e 499d 3f3d 9979 bdbc
000001d0: c564 a43b d50d d6bc 098d 14bc ae71 0fbd
000001e0: 7542 e93d 68eb 2e3c 1f62 31bd 4d15 a5bd
000001f0: 102c 31be d028 c43d 4bf1 10bc fcad cbbd
00000200: 27d7 b5bd 1467 ce3d e003 05bc d007 df3c
00000210: 54e4 9f3d 1c0b 973d 6755 273d e086 b93c
00000220: 872a c43d 4591 16bd 3d27 2e3d 89bb da3d
00000230: 6a12 293c b6a1 ef3d ef30 0bbd fbf6 e53d
00000240: fb8d 5cbd 0a80 ab3d e2e3 0cbc d8df dabd
00000250: f7c7 32bd 8e39 cebd 0edc e03d ea15 3e3d
00000260: c513 69bd 33c9 1abd dca7 adbc f85e 85bd
00000270: 1adf 0bbe ca44 b6bd c0ef 96bc 4d5e ca3c
00000280: f079 54bc 2d34 1bbe 76cc 04be ef57 f43d
00000290: 8832 61bd b158 2e3e 7f09 9d3d 6053 0fbc
000002a0: 3f7f 93bc 49ff 963d 2fa9 08bd 3c3b 0abc
000002b0: 49ce a0bb 6e29 a83d 8a62 febc df0c b03d
000002c0: 8c8e 4f3d cf89 0cbe 18bd 57bd 634b d1bc
000002d0: e21a e0bd 8740 f6bb 374f 803d c791 13bb
000002e0: f57d 11bb c035 613b 8b04 76bb 7b86 3f3d
000002f0: 27d5 c23c d7ed 83bd 2905 683d 9067 12bd
00000300: e006 fdbd bcea 293d cd78 bb3d d7de 43bb
00000310: 8634 403c 7a22 52bd 8d70 323d 00f8 0c3d
00000320: 4dc5 113d 6c8a 373d 249e a9bd 1d83 403d
00000330: f7d1 533c 3043 dc3d 3c8f 983d 8d07 d63d
00000340: 0eb6 bb3b f4f8 5c3d d3b8 4abd e64d 093e
00000350: b6b9 b6bd 2088 353c a6a6 e0bc 5d1e a43c
00000360: 6722 8e3b 63b3 07be d22b 063c 51b1 1f3e
00000370: 3449 86bd cc60 1a3c 8e88 91bd 095b c93c
00000380: 190f 823d 0aca 0c3e 9240 3d38 b7ce d23d
00000390: 6dad 6cbd 68d2 62bc 3d7b 2cbe cc94 1f3d
000003a0: b7d4 53bd 628e 423b 0a2d 9c3d 6f54 5cbd
000003b0: ec9b 2dbc b9d8 c53c 0fd8 043c cfa9 063c
000003c0: 0784 88bd aa3f 0d3d 42bf 05bb c656 d8bc
000003d0: 50b8 2ebd d53b 923d 8519 71bd db30 2c3c
000003e0: cdde 0b3e 4c46 453d 4871 57be 5034 323c
000003f0: 466a eb3b dcdf 893d fbcf e33c b4aa 873a
-0.05609818 -0.08613896 -0.09359111 0.19874673 -0.026747027 0.015813362 0.1419205 0.042429548
0.30031273 0.085020535 0.07851273 0.26463658 -0.10306209 0.14913908 0.06632534 -0.045974933
-0.20444599 0.046437386 0.16481657 -0.12611748 0.032022815 0.022921672 0.024599899 -0.20826577
-0.04412645 0.32617667 -0.20134187 -0.021283736 0.12683135 0.20147906 0.06057708 0.20967779
0.014727654 -0.027068956 0.0433479 -0.08214049 -0.07772892 0.045314442 -0.014125192 -0.038475707
-0.03062827 0.034732725 0.12687881 0.14264584 -0.16180845 0.03636594 0.003561046 -0.03906186
0.14528573 -0.06983814 -0.12619485 -0.13343745 0.14972758 0.07253912 0.057390157 -0.06845196
0.093917 0.011131756 0.0010202274 -0.113974474 -0.105871625 -0.13151385 -0.16405495 -0.061467007
0.023064531 -0.05181279 0.01861538 -0.058947247 0.114147276 0.042163134 0.045880653 -0.13371736
0.112817384 0.060256463 -0.049491707 0.029212672 -0.08574899 0.020150114 -0.017754147 -0.07331402
-0.041729115 0.05075662 0.11542076 -0.00745507 0.029138431 -0.09771044 -0.028000496 -0.037888862
0.07048426 -0.004520063 -0.09830097 -0.050185565 -0.026078608 0.05787857 -0.07805489 0.03356552
0.08756047 -0.07076639 0.05494795 -0.018102316 -0.06813221 -0.041508175 0.11673719 -0.07604912
0.07861584 0.0600076 0.019448664 -0.07024745 -0.031221516 0.005215188 -0.0832337 0.018646551
-0.038692895 0.12945801 0.04678086 -0.023129271 0.0050168955 -0.026129643 -0.0090668285 -0.035020523
0.11389629 0.010676242 -0.043306466 -0.080607034 -0.17301965 0.09578097 -0.008846591 -0.09945294
-0.08878928 0.10078254 -0.0081186 0.027225405 0.07807222 0.07375166 0.04085293 0.022647321
0.09578424 -0.036759634 0.04251789 0.10680301 0.010319332 0.11700766 -0.033982214 0.112287484
-0.05384634 0.08374031 -0.008599253 -0.10687226 -0.043647733 -0.100695714 0.10979472 0.046407618
-0.05690362 -0.037789535 -0.021198206 -0.065122545 -0.13659325 -0.08899839 -0.018424869 0.02470317
-0.012968525 -0.15156622 -0.1296862 0.119308345 -0.05497983 0.1702602 0.07667827 -0.0087479055
-0.018005012 0.073729105 -0.03336447 -0.008436974 -0.0049074036 0.08211027 -0.031052846 0.08596205
0.050673053 -0.13724445 -0.05267057 -0.025548643 -0.109426275 -0.0075150165 0.06265109 -0.002251731
-0.002220032 0.0034364313 -0.003753933 0.04675911 0.02378328 -0.06441849 0.056645546 -0.035743296
-0.12354827 0.041483626 0.091539 -0.0029887462 0.011731273 -0.05130241 0.043564368 0.0344162
0.03558855 0.044809744 -0.08282116 0.04700004 0.0129284775 0.107550025 0.07449195 0.10450659
0.0057284897 0.053948358 -0.04949267 0.13408622 -0.0892214 0.011079818 -0.027423214 0.02003401
0.004337597 -0.13252024 0.0081891585 0.15594985 -0.06556931 0.009422492 -0.07106124 0.024579542
0.06350536 0.13748947 4.5121247e-05 0.10293334 -0.05778258 -0.01384411 -0.16843887 0.038960263
-0.051716533 0.0029686918 0.07625778 -0.05379146 -0.010596257 0.024151193 0.008108153 0.008219196
-0.06665807 0.034484543 -0.0020408188 -0.026408564 -0.042656243 0.07140318 -0.058862228 0.010509695
0.1365921 0.048162743 -0.21039307 0.01087673 0.0071842996 0.06732151 0.027809134 0.0010350556

sequential_1/lstm_1/while/lstm_cell_1/add_1/ReadVariableOp f4 [256]
00000000: 0547 9cbc 1c34 2c3d a636 b1bc 9707 703d
00000010: 1824 6f3a 9869 593d c269 0d3d fc30 013d
00000020: 719f 7ebd a6d0 793d 66f7 893d e82b afbc
00000030: 3642 b33c 2ff2 01bd 478a 3b3c 0c68 9f3c
00000040: 1b31 893d b859 323d 64db 053c 8284 d93c
00000050: f289 7a3d 21c9 323c 515a c03c c02f b5bb
00000060: c115 fe3c ff5e 01be 485b 4f3b 8a33 9bbc
00000070: 9ec8 1a3c f5ca 53bd 12a9 5f3d 5430 453d
00000080: 8a3f ee3c 2985 35bd b982 5a3d 960a 373d
00000090: 5295 55bc 2251 ab3c b97a c6bb ea47 34bd
000000a0: f484 74bd fc24 f03c ccaf babc 70d3 2dbc
000000b0: 35fa 273d 30db db3c 236d c83c 3467 613d
000000c0: 1b92 933d 82dc b2bd edfb 4f3d 6cbd 9cbc
000000d0: 1a2b 1dbd 92d8 56bc edcf f33b 2f58 43bc
000000e0: 6628 2ebd ceb0 01bd b455 df3c 0d12 52bd
000000f0: 6529 803c b089 3c3d ee53 55bc 8268 66bc
00000100: 733d 863f ceec 7c3f 44a1 8a3f 2c16 843f
00000110: 0365 7b3f a79a 823f 9e6f 823f 1c3b 783f
00000120: d80d 853f 5213 813f 6c1f 883f 9d23 7c3f
00000130: 8c52 803f 4cb0 7c3f 6ec6 813f 2a4b 7d3f
00000140: 5812 833f d614 853f 5792 893f 8562 873f
00000150: e628 833f 2a91 813f 3b48 803f af74 843f
00000160: 9ac5 823f aa75 7f3f fd69 843f f4ff 863f
00000170: 583a 773f 30e9 733f aedd 873f 0ace 823f
00000180: 013c 813f e3e3 833f 00db 833f 4c5b 853f
00000190: 98a5 803f 6e01 7b3f 6076 793f f8e0 803f
000001a0: 0eca 7e3f b3e5 7c3f bcda 823f d994 743f
000001b0: 00a6 7e3f 0464 873f 710a 823f 995d 873f
000001c0: 457f 803f 7c47 8a3f 5623 833f 9546 7a3f
000001d0: e476 823f 3591 813f 9725 803f 1453 803f
000001e0: 4011 833f 794a 803f e61a 873f 2ae8 7b3f
000001f0: ff08 833f 9831 823f b03b 833f 974c 7b3f
00000200: 964c 1f3d 4c5a 16bb f09a b6bc f2aa 2d3d
00000210: b019 aebc 7912 1e3c ab2d 433c 2a80 0ebc
00000220: e09c 77bd c3c4 95bc 606e f33c 2c5a 1b39
00000230: 223b cb3c 96fa 683c 01e1 183b c545 f83b
00000240: 2558 d23c 1cb5 723c e0fb 983c 29fb 783c
00000250: df39 10bd 791b 603c 03c6 923c a5c8 253d
00000260: 48f3 d43c f16a 363d 6eee c73c fbb1 1d3d
00000270: 71e8 abba a696 7eba fc1a 81bd 3935 01ba
00000280: 6ade 06bd e2a8 12bc fe14 8b3a bd69 7fbc
00000290: 0517 3fbc 24cb 96bc a065 4ebd a031 13bd
000002a0: 6ab3 43bc 455b 8ebc 997c a13c 5968 7f3c
000002b0: 4911 0e3d 3e73 233c dcd9 0d3c e7fa 1dbc
000002c0: c9e8 fe3c 6c4a 323d 02ee 213c 6d98 5fbc
000002d0: 57cc 553c ae1e 5dbc 2266 e83c a9f6 f1bc
000002e0: cccf 9b3c ff60 673c bf98 113d 3bd2 b1ba
000002f0: 0d6c b7bc c158 833c 8309 e0bc 009b 01bc
00000300: 5611 1e3d 0fb0 0b3d 62ad 133c ca5d 8dbb
00000310: 8396 e33c e67e 493d a7e1 c239 0c12 2b3d
00000320: af76 543d a123 2abd 75ea b83d 40e8 3d3d
00000330: 5c4b 5abc f351 9ebc 59bc 59bc 0416 8a3b
00000340: 52a3 3c3d e689 873c 4cc3 723d 3b30 8c3d
00000350: d1c8 9f3c 0c52 27bd ae34 243d 9300 093d
00000360: c335 aabb 73ea 013d 4926 a63d 4898 523d
00000370: 26d7 a93b 901b 8f3c 889a 87bd 8c0a 4c3c
00000380: 76a2 0b3d dd4e 9dbd 16cb c13c ed48 fd3c
00000390: b1ec 233a 5ed5 653d 4170 8a3c 10ed ad3b
000003a0: 35b6 eb3c e9a4 95bc 1439 283c df3b 5abd
000003b0: aec8 cabc aa63 0e3c 445e 4a3c 0cf6 59bb
000003c0: 3ec9 223d 866a 0abc 9da9 bf3c debb b23c
000003d0: a29d 513d f236 a63d 8d86 07bd 2b43 203c
000003e0: 726a 713d a196 c33c eebe a23c 243d 6dbc
000003f0: 7799 5e3b 1b65 1c3e b2df 0f3a f174 bfbc
-0.019076834 0.042041883 -0.021632504 0.05860099 0.0009122505 0.053079218 0.034524687 0.031540856
-0.062163774 0.06099 0.06736641 -0.02138324 0.021882158 -0.031725105 0.011446542 0.019458793
0.06698819 0.043542594 0.008169983 0.026552442 0.06116671 0.010912211 0.023480566 -0.005529374
0.031016232 -0.12633894 0.0031640101 -0.018945474 0.009447245 -0.051707227 0.054604597 0.048141792
0.029083032 -0.044316445 0.053347323 0.04468783 -0.013036089 0.02091271 -0.00605711 -0.044013895
-0.059697106 0.02931451 -0.022788905 -0.010609493 0.0410101 0.026837915 0.024466103 0.055030063
0.07205602 -0.08733465 0.050777365 -0.019133292 -0.038371183 -0.013113158 0.007440558 -0.01192288
-0.042518996 -0.031662755 0.027262546 -0.051286746 0.015644738 0.046029747 -0.013020499 -0.014063003
1.0487503 0.98798835 1.0830464 1.0319266 0.98201007 1.0203446 1.0190313 0.96965194
1.039485 1.0084021 1.0634589 0.9849184 1.0025191 0.9870651 1.0138681 0.98942816
1.0239973 1.0396984 1.0747784 1.0576941 1.0246856 1.0122426 1.0022043 1.0348109
1.0216553 0.99788916 1.0344845 1.0546861 0.965734 0.9527769 1.0614526 1.0219128
1.0096437 1.030392 1.0301208 1.0418487 1.0050535 0.98049057 0.9744625 1.0068655
0.9952706 0.98787993 1.0223002 0.95539623 0.99472046 1.0577397 1.0159436 1.0575439
1.003884 1.0803065 1.0245159 0.9776395 1.0192533 1.0122439 1.0011472 1.0025353
1.0239639 1.0022727 1.0555084 0.9840113 1.023712 1.0171385 1.025259 0.9816374
0.038891397 -0.0022942005 -0.022290677 0.042399354 -0.021252483 0.009647959 0.011912744 -0.008697549
-0.060452342 -0.0182823 0.029715717 0.00014815544 0.02480847 0.014219901 0.0023327472 0.0075766766
0.025676796 0.014813688 0.01867479 0.0151966 -0.03521144 0.013678425 0.017916685 0.040474553
0.025994912 0.04453558 0.024405684 0.038499814 -0.0013115538 -0.00097117794 -0.06303975 -0.000492889
-0.032926954 -0.008951398 0.0010611115 -0.015589175 -0.011663203 -0.018407412 -0.050389886 -0.035935998
-0.011944631 -0.017377505 0.019712733 0.015588843 0.034684453 0.009976206 0.008657899 -0.009642339
0.03111686 0.043528005 0.009883406 -0.013647181 0.013049207 -0.013496084 0.028369013 -0.029536562
0.019019984 0.014122247 0.03554606 -0.0013566682 -0.02239039 0.016033532 -0.027348286 -0.00791049
0.03859075 0.03410345 0.009013506 -0.004314159 0.02778173 0.049193285 0.00037170688 0.041765258
0.051870998 -0.041537885 0.09029094 0.04636407 -0.013323631 -0.019326186 -0.0132895345 0.0042140502
0.046054192 0.016545247 0.05926828 0.06845137 0.019504936 -0.04084973 0.0400893 0.033447813
-0.005194397 0.03171773 0.08112771 0.051414758 0.0051831184 0.017469198 -0.06621271 0.012453686
0.03409048 -0.076810576 0.02365641 0.030918563 0.00062532263 0.056111686 0.01689923 0.005307801
0.028773407 -0.018267112 0.010267515 -0.053279754 -0.024753895 0.008690754 0.012351576 -0.0033258228
0.0397427 -0.008448249 0.023396308 0.021818098 0.05117572 0.08115949 -0.033087302 0.009781639
0.058939405 0.023875536 0.019866433 -0.014479909 0.0033965984 0.15272944 0.000548835 -0.023371192
